trained_models/train-epoch9.pth (torch_old, 43853 bytes, 14 tensors)

conv1.weight f4 [32, 3, 3, 3]
00000000: 1ca6 88be 94c3 203e b24a 8e3e 650a 0dbf
00000010: 0626 553c 076b cb3d b17e 75c0 9e01 1cbe
00000020: 3706 c53b 8868 34be ced4 083e 6413 2f3e
00000030: e19f eebe 68b1 3bbc 7ea2 5b3d b021 8ac0
00000040: 6173 4fbe 5da0 c53c f16e 2ebd 56fb 223d
00000050: 5831 0b3e 659a 6dbe 30fc 83bd 50e6 2bbb
00000060: 1ef7 b9bd 7623 34bf 3ce0 d1bd d3fd 36be
00000070: 52ed 86be 017c 7bbe 4d8a 87be 111f 88be
00000080: 9612 9abe ca73 6fbe 8051 85be da21 57be
00000090: 1308 413e cb33 b13d 8bcc 113e bf43 c03d
000000a0: 0191 263d 56f7 a43d 4929 013e 91bf 963d
000000b0: 830c 313e 06ab ba3e 127c 8a3e 2d03 c73e
000000c0: 77e8 933e 3737 503e 1878 a93e 86ed a93e
000000d0: 5dcf 973e d972 d03e 7556 333e b178 78be
000000e0: 2c07 cfbf 2dad 1b3e 0ad7 c4be 696a a0be
000000f0: 9233 1f3e b74b 42be fc73 64bf 10a1 573e
00000100: 1450 24be fd5d 7ebf d2ca 8a3c e485 afbe
00000110: 0ec8 2b3e 4004 653e 8851 f2bd 05ed 1cbf
00000120: d814 073e a711 a9be 22fd 6bbe 50d9 5bbd
00000130: ab7b bbbe a213 1ebe 8cb3 4f3e 50b9 1ebe
00000140: ec24 44be 719a 2fbe 170d 3e3d dbd6 203e
00000150: c26c f0bd b741 ad3d a262 353e 1eb9 4bbe
00000160: 1301 ce3c cde3 1e3e 7930 7bbe ca4e 2c3d
00000170: 9015 233e a94c 41be 765c 8b3d 5c40 2a3e
00000180: 6e4d 66be aa8a d03c 78fe 2d3e faf5 9abe
00000190: 34ca 323d e35f 343e fc65 7bbe 1f03 b93d
000001a0: f79a 4e3e 17c8 96be 339f 0b3d 69ac 673e
000001b0: f927 05bd aada 2dbd 4fd2 0dbf 7fa2 3c3e
000001c0: c50c 033e f3a4 7fbe f79d b83d f684 953d
000001d0: a19f 6fbe 4f30 fabc 5ca2 113d 4577 25c1
000001e0: b6ab 783d 9a42 cd3d 7627 acc0 d022 06bd
000001f0: dc3c 893b 41fd 16bf b849 83be 5a50 4abe
00000200: 5c8d e1c0 49dc 11be 2876 abbd 83c9 86bf
00000210: 885e 49be a82e 3ebe df42 babf b4ff 2fbe
00000220: 5c4d 24be 5b89 ffbd 56a2 59be 2a7c 3ebe
00000230: bde4 edbd 2e4b 03be f3cb c0bd c8c4 08bd
00000240: 6b2a 20be d2a8 1fbe ac64 f2bd 65b7 36be
00000250: 348c 1fbe 56f0 d8bd 5ff8 fcbd 7219 abbd
00000260: 2135 1dbd ae20 0ebe 2ae7 04be b76b b0bd
00000270: 50dc 32be 5f68 04be 420a 4dbd 71fc c8bd
00000280: 9aba 31bd 91bc 0f3d 513b b2be a4c9 82be
00000290: 8bd1 e9bd 0d46 b0be d4d3 93be 3185 c5be
000002a0: b66f d8bd 75e9 06bf 1850 e3be 65f0 fec0
000002b0: 3d77 5bbf 45f6 debf d20d 39bf 025e 4b3e
000002c0: 1a9f 7c3e ad23 c0bf 3b37 443d 7b19 b03d
000002d0: 6e97 edbe 014d 893e ea0c 993e ec42 b43e
000002e0: 33a5 f43e feac b63e 4d21 863e c547 eebc
000002f0: 76a4 903e 9ac1 86c0 3563 76c0 ffdb 8cc0
00000300: 7677 9d3e 5f22 653d 1079 9a3e ae40 433d
00000310: 8c4c 123c 42e4 6cbb ea2c 35c0 7722 2fc0
00000320: 43db 4fc0 e8ea 203e d465 d53d 4c54 6d3e
00000330: 0f62 91bc 1ad4 473c 417b e0bc 0e49 eec0
00000340: 3d35 c9c0 ff27 07c1 c92f 203e 42ca dd3d
00000350: 0082 5a3e d9ca b8bc 904b 11bd 7ae1 903b
00000360: 14c5 41be ae21 85be 10dd a2bd 0990 c0be
00000370: 5877 c8be 0812 5bbe c0dd 40be dcf6 70be
00000380: 1b0c 47bd 2794 c7bd 8332 34be 5b71 2cbd
00000390: 63ad 7fbe c867 68be 5c04 2bbe 1eaa 5fbe
000003a0: d237 6bbe baf5 0ebd 3520 6cbd 9883 0bbe
000003b0: 9cbd 4539 a045 a4be 654b 7bbe 921d a4bd
000003c0: 50b2 c8bd b8e5 45be 04e9 363d 7ee7 b43d
000003d0: d0dd 053e c165 003e edc6 0d3e ddc9 203e
000003e0: 1fc5 f83d 2faf d43d 6904 123e 06ff f63d
000003f0: 1ceb f5bc 55f4 bbbb 56cf c5bc c891 d5ba
-0.2668923 0.15699607 0.27791363 -0.55093986 0.013009554 0.09932523 -3.8358576 -0.15234992
0.0060127038 -0.17618 0.13362429 0.1709724 -0.46606353 -0.011455871 0.05362176 -4.3166122
-0.20258857 0.024124319 -0.04258627 0.039790474 0.13593042 -0.23203428 -0.06444585 -0.0026229806
-0.09080337 -0.7036661 -0.102478474 -0.17870264 -0.26352936 -0.24559022 -0.26472703 -0.26586202
-0.30092305 -0.23384014 -0.26038742 -0.21009007 0.18850736 0.08652457 0.14238183 0.093879215
0.04066563 0.08054988 0.12613405 0.07360757 0.17289929 0.36458606 0.27047783 0.3886961
0.28888294 0.20333563 0.33099437 0.33189029 0.29650393 0.40712622 0.1751345 -0.2426479
-1.6174064 0.1520278 -0.38445312 -0.31331185 0.15547016 -0.18974195 -0.8923948 0.21057534
-0.16046172 -0.99362165 0.016942415 -0.34281838 0.16775534 0.22364902 -0.11831957 -0.61299163
0.13191545 -0.3302128 -0.23045781 -0.053674042 -0.3661779 -0.15437177 0.20283335 -0.15500379
-0.1915471 -0.17148758 0.046399202 0.15706961 -0.11739494 0.084598 0.17713407 -0.19894835
0.025146997 0.15516587 -0.2453021 0.042067327 0.15926194 -0.188769 0.06804745 0.16626114
-0.22490475 0.025456745 0.16991603 -0.3026579 0.043649867 0.17614703 -0.24550623 0.090337984
0.20176302 -0.2944953 0.03408737 0.22624363 -0.032508824 -0.042444862 -0.5539903 0.18421362
0.1279784 -0.24965267 0.090145044 0.07300751 -0.23400737 -0.030540613 0.03555523 -10.341619
0.06071063 0.10022469 -5.379817 -0.032748044 0.004188163 -0.58980185 -0.2564218 -0.19757214
-7.048506 -0.14244188 -0.08372146 -1.0530246 -0.19664967 -0.18572485 -1.4551657 -0.17187387
-0.16045135 -0.1247737 -0.21253332 -0.18602052 -0.11615894 -0.12821648 -0.094139 -0.03339079
-0.15641181 -0.15591744 -0.11835608 -0.17843397 -0.15580827 -0.105927154 -0.123520605 -0.08354463
-0.038380746 -0.13879654 -0.12978807 -0.08614295 -0.17466855 -0.1293044 -0.05005861 -0.098137744
-0.043390848 0.03509194 -0.3481088 -0.25544465 -0.1141692 -0.34428445 -0.2887255 -0.3857818
-0.10568182 -0.5269998 -0.44397044 -7.966845 -0.8572882 -1.7418905 -0.72286713 0.1986008
0.24670067 -1.5010887 0.047904234 0.0859861 -0.46404594 0.26816562 0.29892665 0.35207307
0.47782287 0.35678858 0.2619728 -0.029086957 0.28250474 -4.211133 -3.849805 -4.401855
0.30755204 0.055940982 0.30170488 0.047669105 0.008929383 -0.0036146794 -2.8308663 -2.7364786
-3.2477577 0.1571461 0.10419813 0.23176688 -0.017746953 0.012196565 -0.027402522 -7.446418
-6.287749 -8.447265 0.15643229 0.10829593 0.21338654 -0.022557663 -0.035472453 0.00442141
-0.18922836 -0.26002258 -0.079523206 -0.3760989 -0.39153552 -0.21393597 -0.18834591 -0.2353167
-0.04859553 -0.09745055 -0.17597394 -0.04210029 -0.24968486 -0.2269584 -0.16700882 -0.21842238
-0.22970513 -0.03490231 -0.057647903 -0.13624418 0.00018858019 -0.3208437 -0.2454048 -0.080134526
-0.097996354 -0.19325912 0.044655815 0.08833216 0.13072896 0.12538816 0.13845415 0.15702005
0.12146973 0.10384976 0.14259495 0.120603606 -0.030019335 -0.0057359138 -0.024146717 -0.0016294057

conv1.bias f4 [32]
00000000: f2b9 97bb 80cd 9bbf 33b7 eabb fc51 81be
00000010: 8ce8 ab3d c7f9 37be 1af3 043d f833 e8be
00000020: 7b63 33be c1c2 253e d736 043e b67a 5bbe
00000030: dc51 0fbf ca7e 6b3e 4385 35be ffaf dfbc
00000040: c0cc 05bf bc7c c2bc 9dc3 05c0 60c8 4fbe
00000050: 8f29 64be 77ad 77bb feeb 933e bbd1 413f
00000060: 4690 56be 7b02 99be 3528 cfbe 5307 7abd
00000070: 4522 51be 908b 69be f779 9d3e 77ed fbbb
-0.0046303207 -1.2172089 -0.0071629523 -0.25257862 0.08393964 -0.17966376 0.032458402 -0.4535215
-0.17518418 0.16187574 0.12911545 -0.2143353 -0.5598428 0.22997585 -0.17726617 -0.027305601
-0.5226555 -0.023741119 -2.0900643 -0.20291281 -0.22281478 -0.0037792602 0.28890985 0.7571065
-0.20953473 -0.29884705 -0.40460363 -0.06104214 -0.20423229 -0.22807145 0.30757114 -0.00768822

conv2.weight f4 [16, 32, 3, 3]
00000000: df06 aebd 874a 563c 3c3c 2fbd 0fc3 7d3c
00000010: ecf2 d4bc b7ea de3b bcff f53c d159 a4bb
00000020: d602 ae3c 0b49 cfbd 9feb e8bd c936 cdbc
00000030: 63bc e9bd 72d7 8dbd 7f2b c0bd ce2a 3abd
00000040: c05a eebd f9c0 b5bd 1c66 4abd 506e 0abd
00000050: fe6b f8bc c8f3 70bd c3fc 473a 5781 563c
00000060: 7790 89bd 81a8 21bd b54f 66bc 42c8 80bd
00000070: 1a63 8fbd 22ab 83bd d68d 58bd 1486 73bd
00000080: 2afc 2abd e014 5abd b940 d3bc 255c 82bd
00000090: 4dd9 bbbd 10ac eabd 4e52 a7bd b04a 0abe
000000a0: 2f8d 83bd f5fd 31bd 2ede 78bd 98cc 95bd
000000b0: bc2c 98bd f428 91bd 13aa 723c d232 14bd
000000c0: 8a00 ac3b 634a f33b 985e 09bd b12a 55bd
000000d0: 8538 59bb 191c 90bd 3e21 c9bc 334a 68bd
000000e0: ca51 6dbd 4c1f 61bd 7b05 eebd a9d1 e0bd
000000f0: bb7f 97bd 9dab 07be a08f 35bd 4959 9bbd
00000100: 6f36 51bd bcc9 98bd 332d c2bb 732e e1bc
00000110: c0d1 45bd 0f61 3abd d0fb 66bd 26c6 c9bb
00000120: cfd0 11bd 28e4 01bd 9eaa 4ebd b60c 36bd
00000130: d714 ecbc 2417 83bd f274 aebd 8d8b 77bd
00000140: e6d1 a9bc 3778 bcbc 696e dabd 822e 37ba
00000150: 5c18 99bd a507 02bd 5e50 87bd ad70 b0bd
00000160: 0665 0dbc 68f1 84bd 714e 83bd c3a2 1abd
00000170: 1e99 57bd d07f fbbb 2ef6 a7bd 668d 88bd
00000180: ce2c 98bd 0865 87bd 646b a3bd 2734 0dbd
00000190: 48b0 71bc 988f b7bc 8125 15bd 9d70 d4bd
000001a0: f47e 81bb e7ba e6bc 7a98 a7bd 79dc 9dbd
000001b0: 4180 46bd 81b3 44bd c769 9a3c 6bc3 efbc
000001c0: d5fb 17bd 5bed 9ebd e379 48bb ee58 a4bd
000001d0: 3ff1 6abd 5885 ef35 c40b 8f3b 92a7 fdbb
000001e0: a88f 363c 6ef2 ce3b 57cc 8abd 3ca0 c1bd
000001f0: 5516 2cbd 371b 4fbd 62e9 0dbd 8d3e 4dbd
00000200: 2ea6 9dbd 1c12 66bd 1cf4 30bd 2775 92bd
00000210: 28de 98bc 4805 71bd b207 f0bd a515 a9bd
00000220: ea62 8ebd 61f1 57b9 3d90 85bd 89ec 76bd
00000230: b94c bfbd 555d abbb d552 fabd bb82 d2bd
00000240: 717d 9b3b 8c95 08bd b0a9 a8bd 68f1 3eba
00000250: 1168 44bd c5cc c1bc b915 c13b 29fa 6abd
00000260: ef33 c2bd 9417 33bc 7103 2a3d 2bd4 ee3d
00000270: 81fa d1bb d20c 2c3d 97ab 96bb 8721 0a3e
00000280: 3448 993d 7954 ec3d d9e0 113d 4d86 7d3c
00000290: 2a54 89bd 1dec 67bd 5b6a 4abd 5b47 1fbd
000002a0: a259 f63c 142a 04bd e2f1 07bd ab8a 8cbd
000002b0: 8e4d d0bc 8488 02bd 55dc dc3c 6ee1 2dbc
000002c0: fe0a b7bd 577b 9bbd 3e0a 04bd 9055 d1bd
000002d0: 09e0 70bd fac8 e43c fe9f b7bd c418 0cbd
000002e0: 467c 38bd 5046 82bd aa0d d8bc 348c cabd
000002f0: 4066 9dbd 91d5 60bd 812f bcbd bba0 3bbd
00000300: 65b9 73bd ccbf dfbd 212d 86bd 24c1 d23b
00000310: f18d aa3c 0802 10bd 15f9 f3bd 3401 01be
00000320: 9b59 e2bd 1bd3 0cbe b8b6 f5bd 5f74 cb3b
00000330: a906 db3a 8c3b 6bbd 2e35 88bd ea8f febd
00000340: 9f44 5bbd 7214 78bd e313 87bd 33bd e3bd
00000350: acfc cebd 9e4a 2bbd f2f2 23bd fcb3 bfbd
00000360: 732f 61bc aad5 233d 34e0 263b 5c66 d83b
00000370: 6ff6 9d3c 38bd 743c 6701 e8bb 5055 d13b
00000380: 8c39 91bc 15a7 23bc dcae 37bd cfce 5bbd
00000390: 730a d63c 2ca0 9bbd 969b 153c b4ae 96bd
000003a0: 64ea cabd bfec 98bd be7c 68bd 3dd3 5c3d
000003b0: 272b cd3c a617 643d 4af9 1fbd c23b 51bd
000003c0: 0aed bd3c 9080 c33c c214 4abd 4a5c 1cbd
000003d0: 122d 00bd 917b 41bd d130 aabd 5afc 113a
000003e0: dcee cfbc fc46 97bd 4402 95bc 4747 f3bd
000003f0: e917 31bd 0808 3bbd 3b19 98bd f88f 8bbd
-0.08497404 0.013079292 -0.042782053 0.0154884 -0.02599474 0.0068028825 0.03002917 -0.0050155898
0.021241587 -0.10121354 -0.11373066 -0.025050538 -0.11412885 -0.069258586 -0.09383296 -0.045450978
-0.11638403 -0.08874697 -0.049413785 -0.03379661 -0.030324932 -0.058826238 0.0007628912 0.01309236
-0.067170076 -0.03946734 -0.01405709 -0.06288196 -0.07001324 -0.06429125 -0.05286964 -0.05945404
-0.04174439 -0.053242564 -0.025787698 -0.063652314 -0.09172306 -0.114585996 -0.08169995 -0.13505054
-0.06423413 -0.043455083 -0.060758762 -0.07314414 -0.074304074 -0.07087889 0.014811057 -0.03618128
0.0052490877 0.007424639 -0.033537477 -0.052042667 -0.003314526 -0.07036609 -0.024551984 -0.056711387
-0.05793933 -0.054961488 -0.11622139 -0.109774895 -0.073974095 -0.13249059 -0.044326425 -0.07585389
-0.051077303 -0.07460353 -0.0059257983 -0.027487969 -0.048295736 -0.04550272 -0.05639249 -0.0061576543
-0.035599526 -0.031711727 -0.050455682 -0.044445716 -0.028818531 -0.06400898 -0.08518399 -0.06043582
-0.02072997 -0.023006542 -0.1066559 -0.0006987826 -0.07475349 -0.03174557 -0.06607126 -0.08615241
-0.008630043 -0.06491357 -0.06411446 -0.037752878 -0.05263626 -0.0076751485 -0.08201252 -0.066675946
-0.07430421 -0.06611067 -0.079794675 -0.034473564 -0.014751501 -0.022407338 -0.03641272 -0.10373042
-0.0039519016 -0.028165294 -0.081833795 -0.077080674 -0.048462156 -0.04802275 0.018849267 -0.029267987
-0.0371054 -0.07760116 -0.0030590228 -0.080247745 -0.057358976 1.7845696e-06 0.0043654162 -0.007740923
0.011142649 0.006315521 -0.06777256 -0.094543904 -0.042013485 -0.050563063 -0.0346464 -0.05010848
-0.07697712 -0.056169614 -0.04320155 -0.07151251 -0.01866062 -0.058842927 -0.11720218 -0.082560815
-0.0695246 -0.00020593918 -0.06521652 -0.06028417 -0.093408056 -0.005229632 -0.1222283 -0.10278841
0.0047451784 -0.033345744 -0.0823549 -0.0007283897 -0.047950808 -0.023657212 0.005892482 -0.057367478
-0.09482562 -0.010930914 0.04150719 0.116615616 -0.006408036 0.042004414 -0.004598092 0.13489352
0.07484475 0.115395494 0.035614822 0.015473914 -0.06705506 -0.05662166 -0.049417835 -0.03888641
0.030072037 -0.03226669 -0.03318966 -0.06862386 -0.025427606 -0.031868473 0.026960531 -0.010612829
-0.089376435 -0.075918846 -0.03223633 -0.10221398 -0.058807407 0.027927864 -0.08966063 -0.034203306
-0.04504039 -0.06361067 -0.026373703 -0.09890023 -0.07685518 -0.054891173 -0.09188748 -0.04580758
-0.059502978 -0.10925254 -0.065515764 0.0064317156 0.020819636 -0.035158187 -0.11912743 -0.12598115
-0.11052247 -0.13752405 -0.119977415 0.006208941 0.0016710359 -0.057429835 -0.06650768 -0.12429793
-0.05353224 -0.060566373 -0.0659559 -0.11120071 -0.10106787 -0.041819207 -0.040026613 -0.09360501
-0.013744223 0.039998688 0.0025463225 0.006603999 0.019282548 0.014937691 -0.0070802453 0.006388344
-0.017727636 -0.009988566 -0.044844493 -0.053664025 0.02612803 -0.0759891 0.009131333 -0.07357541
-0.09907988 -0.07467031 -0.05675959 0.05391239 0.02504499 0.055686615 -0.0390561 -0.05108238
0.023184318 0.023865014 -0.049336202 -0.03817395 -0.031292982 -0.047236983 -0.08310092 0.00055689143
-0.025382452 -0.07386586 -0.018189557 -0.118788294 -0.043235693 -0.045661956 -0.07426687 -0.06814569

conv2.bias f4 [16]
00000000: d546 f7bd 6352 183f f66b 23be dc23 1cbb
00000010: 1fa4 a73f f0de 94be 9ced 193f 4d13 cbbc
00000020: 3e83 b8bd d92d 7c3d 75a9 9a3f dfa8 97bd
00000030: b58a 83bf bb4c 4d3e 5402 a6be 563e 243f
-0.12074057 0.5950071 -0.15959153 -0.0023825085 1.3096961 -0.29076338 0.6012819 -0.024789477
-0.090094075 0.06156716 1.2082964 -0.074052565 -1.0276705 0.20048802 -0.3242365 0.6415762

conv3.weight f4 [8, 16, 3, 3]
00000000: be93 5e3d 116a b1bd f11f 163d 5eaf 95bd
00000010: 46ab 423d 6c4b 44bd 5d4d af3c f265 e6bc
00000020: c610 9c3d 0e1d 103e fa81 8c3e 4022 773c
00000030: abbb 283d 1277 4ebe 728a f0ba 955f e33d
00000040: 0b90 903e da46 083d d33c 183d 4eb1 473c
00000050: bd1f 2f3d 600e abbc d8dd 9c3c 1660 303d
00000060: 7f49 74bd 184e 34bc fecf 833d f0bf b83c
00000070: 9da0 a43c 6e13 16bd bbfe 89bd 21ed f4bd
00000080: 9da9 20bd 9138 b8bc a4dd 713b da45 96bd
00000090: 5e6e f13d 371a db3e af21 413d 1173 dd3e
000000a0: e284 b33e 33ae a13c fe73 793d 9f39 fd3d
000000b0: e966 e0bd 2991 323d b631 98bd 1299 0fbb
000000c0: 501d 943d d74a 83bf 80b4 edbd 62be c83b
000000d0: e3bc b03c ed1d 5d3a 0889 acbe fe80 8e3e
000000e0: f795 24be 91e9 4e3e 268d 2d3f cb95 4e3e
000000f0: c7f0 95be 1924 4a3e cb3e 58be 3fb4 02be
00000100: ee46 b43b 93b0 01bd d962 30bd 2918 39bc
00000110: 99e2 9ebd 065d eebb d6e4 78bd 5988 793c
00000120: c1c4 5e3d 745e 633d f7fe 9b3d d6f6 a5bc
00000130: e6a9 ca3c eb36 323d 599b 0c3e 6079 b3bc
00000140: 6dc1 a1bc 28f2 cebd 897f e83d 1e7f 86bd
00000150: b383 aa3d c502 323f 5633 123e 6413 a6bd
00000160: 3bf5 e1be 1a70 8fbd 1378 c3bd a3e2 a5bd
00000170: 1c52 11be e456 f8be 3b15 353f edc7 1d3e
00000180: dad7 963d 7a81 e93e 87c8 333d ab16 e13d
00000190: f6c1 98be 688d a33d f223 ddbe 0a51 84bf
000001a0: 2888 9bbe b82b af3d f462 71be b429 d43d
000001b0: 76e9 623e d5c9 1fbe ff35 fc38 9ec9 7fbf
000001c0: 5bdb 64be b40d b03d 5cb9 563c f961 3abe
000001d0: 601e 283d 2335 d5bd bb58 2bbe 99c2 cdbc
000001e0: 3539 d13e 427a bd3d 8469 003e 5ced 08be
000001f0: 12c4 d6bd be96 acbd 7fff 35bd 879b 39bb
00000200: d33c cbbc f7e9 e8be a0a1 0dbf 283b e8bd
00000210: 4f89 9fbd 9801 18be ca95 433d 3c65 e0be
00000220: 01c9 abbe d2f2 bcbd 3d6a f33e 2987 d93e
00000230: 9d77 953c 6f7e db3d 8b7a 0c3e 5351 3b3d
00000240: 1e68 323d 5515 db3b 8812 54bb 4227 903d
00000250: 55ad bf3c 03e5 8e3d 14ca ee3c ed26 42bd
00000260: f11e e23d 9f59 03bf 79a7 09be 140c 65bd
00000270: 9fb7 77bd 4210 993e 5d29 0bba 152c 28bd
00000280: 4bf2 0e3d 2086 b0bc d4b9 a43b 5beb 533d
00000290: b8e9 c43d b0b4 c1bc 7a8d ce3c f5b3 ba3d
000002a0: e661 7dbb 62ad 233d 6c31 a73c 5fb2 e5bd
000002b0: 5d7d 473c 6e4f c53c c170 3e3c c05c bbbd
000002c0: eaf5 fbbc 49f8 f0bc af2f e7bd 8d59 03be
000002d0: ad93 17bf 2f2d 93be 8421 dabc 498b 0b3f
000002e0: 88ed 703f b81b a0bd 1d37 febc ca4f 8f3e
000002f0: f52b 983d dc1c 00bd c401 a9be 00fd 00be
00000300: 8f57 1abe 1804 b8bd 5459 eabd fbdc 0cbd
00000310: 5ae8 0f3a 193f a6bd 71cb 1a3f 12ce 343e
00000320: e70b bfbd c017 a43e 68d1 543d eaef 43be
00000330: e2cb 103d f7db b7bd 22ad 17bd e767 1d3c
00000340: b803 823c a4e2 a23c 1dff 8f3c c2fe dbbd
00000350: 19aa f4bd df66 a53c 1884 f8bd d652 01be
00000360: 6810 9a3c 0589 943d f5ae 013d bd2c 793d
00000370: a715 0e3d 004e 9b3a 1bb8 80bc d074 3dbc
00000380: 15bf f03b c5e6 853e 6e71 873e 54a0 a83c
00000390: a1a7 76be cad3 bbbf 223d 0e3e 88ac 433d
000003a0: 8ad3 433d dc6c 893c db90 a7be b165 033f
000003b0: 6856 c13d 24a4 db3d f097 ba3e da3c 5b3e
000003c0: 968a 30be 0254 c6be 36ff 7d3d 9f38 d8bd
000003d0: b9cf 933d fb0f b5bb e614 003d 9b78 933e
000003e0: 3177 203d dc97 47bb 1721 453c 22ae 2ebd
000003f0: 9b79 3abf ba48 c13d 72a5 053e ba5c 41bf
0.054340117 -0.08662809 0.036651555 -0.07308839 0.04752662 -0.04792349 0.021399194 -0.028124783
0.07620387 0.14073583 0.27442914 0.015083849 0.0411946 -0.20162609 -0.0018351807 0.11102215
0.28234896 0.033270694 0.03716738 0.012188269 0.042754877 -0.020880878 0.019148752 0.043060385
-0.059640404 -0.011004947 0.06436156 0.02255246 0.020096118 -0.036639623 -0.06738039 -0.11959291
-0.039224256 -0.02248791 0.003690579 -0.07337542 0.11788629 0.42793438 0.047151264 0.4325185
0.3506232 0.019736385 0.060901634 0.12364506 -0.109571286 0.043595467 -0.074313566 -0.0021911305
0.072321534 -1.0257214 -0.11606693 0.006126211 0.021574443 0.000843494 -0.33698297 0.27832788
-0.16072832 0.20206286 0.677935 0.20174329 -0.2928526 0.19740333 -0.21117704 -0.12764071
0.0055016195 -0.031662535 -0.04306302 -0.011297264 -0.07758064 -0.007274273 -0.06076511 0.015230262
0.054386858 0.05551 0.0761699 -0.020259302 0.024739217 0.043509405 0.13731135 -0.021908462
-0.019745553 -0.101047814 0.113524504 -0.065672144 0.08325901 0.69535476 0.14277396 -0.08109167
-0.44132408 -0.070038036 -0.09544387 -0.08099868 -0.14191478 -0.48503792 0.7073552 0.15408297
0.07365389 0.45606595 0.04389241 0.10990652 -0.2983548 0.079859555 -0.43191487 -1.0337231
-0.30377316 0.085532606 -0.23572904 0.10359517 0.22159371 -0.15604337 0.00012026354 -0.9991702
-0.22349302 0.08596364 0.013105717 -0.18201436 0.041044593 -0.10410526 -0.16733067 -0.025117205
0.40863958 0.092518345 0.12540251 -0.13371795 -0.10486616 -0.08427189 -0.044433113 -0.0028321461
-0.024809277 -0.45491 -0.55324745 -0.11339408 -0.077898614 -0.14844358 0.04775027 -0.43827236
-0.3355179 -0.09226002 0.4754199 0.42485932 0.018245513 0.10717475 0.13718621 0.045731854
0.043556325 0.0066858926 -0.0032359678 0.07038738 0.02339808 0.06977274 0.029149093 -0.047400404
0.11041058 -0.51308626 -0.13442792 -0.05591972 -0.06047785 0.29895216 -0.0005308593 -0.041057665
0.034899037 -0.02154833 0.0050270353 0.051738124 0.09614891 -0.023645729 0.025213946 0.09116355
-0.0038663088 0.039960273 0.020409308 -0.11215662 0.012175885 0.024085727 0.011623562 -0.0914855
-0.03075691 -0.029415267 -0.11288392 -0.1282713 -0.5920971 -0.2874541 -0.02662731 0.5450941
0.94112444 -0.07817787 -0.03103214 0.27990562 0.07430259 -0.031277522 -0.3300916 -0.12596512
-0.15072463 -0.08985156 -0.11442819 -0.03439043 0.000548964 -0.08117504 0.60466677 0.17656735
-0.09328442 0.3204937 0.051957518 -0.19134489 0.035350688 -0.08977502 -0.037030347 0.009607292
0.015870914 0.019883461 0.017577702 -0.107419506 -0.11946506 0.020190654 -0.1213457 -0.12629256
0.018806651 0.07252697 0.031660993 0.06083368 0.034688618 0.0011848807 -0.015712788 -0.011563495
0.0073469975 0.26152626 0.26453727 0.020584263 -0.24087383 -1.4674008 0.13890508 0.04777196
0.04780916 0.016775541 -0.32727703 0.51327044 0.09440309 0.10724667 0.36444044 0.21409932
-0.17240366 -0.38735968 0.062010966 -0.105576746 0.07217354 -0.0055255867 0.03126993 0.28802952
0.03917617 -0.0030455505 0.012031815 -0.042646535 -0.72841805 0.094376996 0.13051394 -0.75532115

conv3.bias f4 [8]
00000000: 5d7f f13f 7d8c 0740 8b62 e83f 49c7 1440
00000010: f31d 0540 f4f1 b0bd adf5 f33f 38ef c13f
1.8866993 2.1179497 1.8155073 2.3246634 2.079953 -0.08639899 1.9059349 1.5151129

t_conv1.weight f4 [8, 8, 2, 2]
00000000: 6a86 843e fe0c 8fbe c367 613e ee66 643e
00000010: a8d5 dfbc 9eaf 81be a15b 0a3c 5af9 ae3e
00000020: 82f9 8c3e 383b 88be 722f 93be a8b3 61bc
00000030: a244 7f3d 0093 20bd 1a5b 45be 27f3 883e
00000040: b068 4bbe 34da cabd 8f52 343e 8bf3 3fbe
00000050: 9065 d3be 0c44 933e 2662 053f 21a7 80bf
00000060: 0919 f93e f2c9 32be d11a cfbe 5994 e7be
00000070: d5d3 c33d b5f9 213e 8d46 1bbe 90da d1be
00000080: 434a 323f 1284 f6bc aeda b83e 101a afbb
00000090: be0b fabe e334 b5be a139 0abd 0cf8 eebc
000000a0: 092a 76bf 974f eebd f3a3 28bd 3f47 09be
000000b0: 3b68 73be 6726 57bc dbd8 55be 0820 7cbd
000000c0: dea5 9ebe b83b 21bd fd37 88bd ddbe 1b3c
000000d0: d854 4c3f 2860 ccbd 4e6b febd 149b d5be
000000e0: 9bf8 d03e eaab b13e 0ec7 b6bd 6d1a 2d3e
000000f0: 257f 1f3f 5d2d 04be b6ed a9bd 2b3d 9c3d
00000100: 73e7 a8bd 9cbe acbe f42e febe 1553 48bf
00000110: 6ed0 6b3e a113 36be c20c 163f d46e 883d
00000120: 1dae 1ebd 4118 143d 1b18 0bbe c194 56be
00000130: 830f 87bb 4d88 16bd b13e b63e d3b9 0d3f
00000140: 6fee 82be 7152 7fbd e387 3a3d f2d8 323e
00000150: ceb0 033e 3c93 723c d605 fe3d 8d65 d73e
00000160: 3e7c d5bb 0d2a 6bbd 1d87 0dbe c1db bdbe
00000170: d481 69be 7c24 d13e a896 77be 7786 7c3f
00000180: 7578 4bbe 3f63 47bd 59e1 f8bc 9e49 ef3e
00000190: 1f05 ce3e b44d 233f d99a a8bb c8f2 d93d
000001a0: ae71 35be e27e 13be 9716 de3c e749 a8bd
000001b0: c816 23bf ecdd c7be ea7f 213d b5b0 ae3c
000001c0: fae4 6dbe 5513 133f 1889 f6bc 485b 7abd
000001d0: 2a0f 633e fd7b 113f 77ae 293d 1120 213f
000001e0: 6c1e bcbd 9a29 473f 2256 4bbe 23fa 6abd
000001f0: b75a 11bf 6aa3 65bf 1413 823c 41b1 afbe
00000200: 17ed 323d c814 dfbd e3e8 8bbe 0f96 d4bd
00000210: dd5e 00bf cc2b dc3d 25dd 17bf 9f35 b03e
00000220: 843c 0b3f 7845 21be b9ef 93be b5f6 85bd
00000230: 579a 183e 9be5 5bbc fb91 913d 822b d0bd
00000240: bac3 08be 0abf 3ebd 5a46 023f 7110 e23b
00000250: af5f 97be ebf0 edbd 9da8 b63e 4d36 6cbc
00000260: ae19 43bd 0fa1 b1bc 0a34 3abf 90fe 2ebe
00000270: 56ae 893e c60a 213d 7fe9 723f fdf2 483e
00000280: ca36 233e 6736 22bc 6c27 adbd 54ef a8bd
00000290: b6f7 5fbe dbf9 903d 06b8 72bd 0811 4d3e
000002a0: 7a66 d3bc f7c3 fe3c 8605 57be ea5c 58be
000002b0: 6868 78bd bc7e 2b3e 4c98 4c3d 0f0c 3c3d
000002c0: cd87 30be 3efb e3bb 20e7 8bbc eb17 12be
000002d0: d6fa 6ebd f6e8 d83d bd5a 3a3d 72a7 223d
000002e0: 438f 61be 5039 1fbe 3338 30be 3335 06bd
000002f0: 79b4 043e 58d9 09be f0ca 28bc 0f68 35bd
00000300: 52ed 87bd 0ffc babd b43d 553d 1fb2 06ba
00000310: 0aa2 ae3d e79a 193f 87b3 283e 2218 96bf
00000320: f8be e33d b559 c4be 5d30 6bbe 57c3 1dbe
00000330: 665f 0abe f1bc f5bd fbc8 183d 95b6 b53e
00000340: e059 48be c9a2 873e d077 d6bd 5fa0 8a3e
00000350: c1e6 b1bd 0dc5 623e 5855 e7bd 8f2c 76bf
00000360: f87a 70bd 8fb8 52bf 5e72 77be c1a1 b33f
00000370: fe75 683c 9d33 9f3e 2ece ebbd d5ae 28be
00000380: 7b42 8b3e 2f81 07be df38 6a3e 0363 8b3e
00000390: 3b00 973e 5f0c 25be a28a 843e e76a a73e
000003a0: 6098 5d3e 7295 1dbe 71d8 71bd 76db 95bb
000003b0: a927 aa3d 8cc0 82be bda1 0fbe 98eb cf3c
000003c0: 6922 6dbe 645f 8a3e 9ed4 8e3e c9e1 9b3e
000003d0: b159 9bbe 6577 57be f4e5 42be 8b88 80bf
000003e0: 3bc2 0bbe a046 8bbb aef2 6ebe e554 08bf
000003f0: 7dc7 50be 7b14 193d cef1 fabe 51e9 e5be
0.258838 -0.279396 0.22012238 0.2230489 -0.027323559 -0.25329298 0.008444698 0.34174615
0.2753411 -0.2660768 -0.28747135 -0.013775744 0.062321313 -0.03920269 -0.19273034 0.2674801
-0.19864154 -0.099049 0.17609619 -0.18745248 -0.41288424 0.28762853 0.5210289 -1.0051004
0.48651913 -0.17459849 -0.40450147 -0.45230368 0.09561888 0.15817912 -0.15163632 -0.40987062
0.69644564 -0.030092273 0.3610434 -0.005343683 -0.48837084 -0.35391912 -0.033746365 -0.029171012
-0.9615789 -0.11636274 -0.04117198 -0.13406084 -0.2377023 -0.013131714 -0.20883505 -0.061553985
-0.30985922 -0.039363593 -0.06651304 0.009505955 0.7981696 -0.09979278 -0.124228105 -0.41719878
0.4081467 0.34701473 -0.089246854 0.16904612 0.6230338 -0.1290793 -0.08297293 0.07628854
-0.082472704 -0.33739173 -0.49645197 -0.78251773 0.23028728 -0.17780925 0.58613217 0.06661764
-0.038740266 0.036155943 -0.13583414 -0.20955183 -0.004121722 -0.03675108 0.35594705 0.5536167
-0.25572535 -0.06233448 0.045539748 0.1746557 0.12860414 0.014805611 0.12403457 0.42069665
-0.006515055 -0.05741315 -0.13821073 -0.3708172 -0.22803432 0.40848148 -0.24178565 0.9864268
-0.1987017 -0.048678633 -0.030380892 0.46735853 0.40238282 0.6379044 -0.0051454124 0.1064201
-0.17719147 -0.1440387 0.027110381 -0.08217221 -0.63706636 -0.390365 0.03942863 0.021324495
-0.23231879 0.57451373 -0.030094668 -0.06112221 0.22173753 0.56829816 0.04142615 0.62939554
-0.0918549 0.77797854 -0.19857076 -0.057367455 -0.56779045 -0.89702475 0.015878238 -0.34314921
0.043683138 -0.108926356 -0.27326116 -0.10380184 -0.5014475 0.10750541 -0.59321815 0.3441591
0.54389215 -0.15749156 -0.2889383 -0.06541196 0.14902626 -0.013421441 0.07107922 -0.101645485
-0.13355914 -0.046568908 0.508886 0.0068989326 -0.29565188 -0.11618217 0.35675517 -0.014417243
-0.047631912 -0.021683244 -0.72735655 -0.17089295 0.2689082 0.039316915 0.94887537 0.19623943
0.15938869 -0.009900666 -0.08454785 -0.08248773 -0.21871838 0.07078906 -0.05925753 0.20026028
-0.0258057 0.031099303 -0.20998201 -0.21129194 -0.060646445 0.16747564 0.04994993 0.045909937
-0.17239304 -0.0069574406 -0.017077982 -0.14266936 -0.058344685 0.10591309 0.04549669 0.03971047
-0.22027306 -0.15549207 -0.17208938 -0.03276558 0.1295947 -0.13461816 -0.01030229 -0.04428869
-0.06637062 -0.091301076 0.052060798 -0.00051382364 0.08527 0.6000199 0.16474734 -1.1726115
0.11120409 -0.3834969 -0.22967668 -0.15406547 -0.13512954 -0.11998928 0.037301045 0.35490862
-0.19565535 0.26491383 -0.10472071 0.27075478 -0.08686591 0.22145481 -0.11295575 -0.9616174
-0.058711022 -0.82312864 -0.24164721 1.4033738 0.014188288 0.31094065 -0.11513935 -0.16472943
0.27199158 -0.13232873 0.22873257 0.27223977 0.29492363 -0.16118 0.25887018 0.32698748
0.21640158 -0.1538904 -0.059044305 -0.004573281 0.08308346 -0.25537527 -0.14026542 0.025380895
-0.23157658 0.27025902 0.2789659 0.30445698 -0.30341867 -0.21041639 -0.19033033 -1.004167
-0.13648312 -0.0042503625 -0.23334762 -0.5325454 -0.20388599 0.037373047 -0.49012607 -0.4490457

t_conv1.bias f4 [8]
00000000: 462e 8abe 38df 1d3d 83ad 1dbf 5f36 3bbd
00000010: c27b 33bd 89ec ccbe f6dc d53d 2cde 2fbd
-0.2698843 0.038542956 -0.6159288 -0.04570615 -0.043819197 -0.40024212 0.104425356 -0.04293649

t_conv2.weight f4 [8, 16, 2, 2]
00000000: 45c4 043f d1cc ddbd 8927 08bd 9ec4 febd
00000010: 0832 a7bd d255 7bbc 4497 ddbd 33ea 87bd
00000020: eb31 b03e 0141 a83e 63de ab3e 7907 a63e
00000030: 2912 3b3d b993 e0bd 1dff 2fbe ba0d d6be
00000040: caa7 8bbd 1653 28bd 49a1 17be fd10 20be
00000050: 2494 4cbd f101 b7bd 0191 89be e807 d9be
00000060: 0098 91bc 833c c93d 9a07 0b3d 080f b3bf
00000070: fb26 95be dadd b2be 61cb 10be 4f17 87bd
00000080: 885d 50bf e7cf 96be ff49 51be 837e 6bbe
00000090: b9fd b33d 15a1 97bc a477 85bd 9a42 c53d
000000a0: e1ae c6bd 83e6 0e3d daa7 c9be 4465 48bd
000000b0: 5403 92bc fd8a 013e 5b48 b2be 3341 5cbe
000000c0: 961e 9dc0 9823 acbf 9bd5 df3d 1f75 93bf
000000d0: 0355 62bd 17a3 3fbe 989e 48be 3325 823b
000000e0: 3fb5 75bc e94f 93bd b9a0 c0be 609b e23d
000000f0: 7ec3 e73d 76cc fbbd 1eed fe3d ba01 a9be
00000100: 62e4 d43d d600 69be 326b 943e 27a2 68be
00000110: ad67 bfbd b969 83bd 14e9 83bd 1339 2dbe
00000120: 85bf d8bd 2331 9ebc 121b f8bd f66a 743d
00000130: 93d8 f13d ea08 0dbf b786 31be 354a 893d
00000140: 83fd 8abc 5f04 f13d 2683 c03b b94d b63d
00000150: fffa 0f3e 7698 c0bd acd7 3dbe 2d3d c4be
00000160: 7d97 f6bd 6509 e0ba 1e20 7c3e 37a3 49bf
00000170: 8864 ea3e 8547 18be 17a7 493d 4d6f 19be
00000180: 2d3a a0be 63fa b8be 1ae8 84bd a92c f8bd
00000190: 3013 0c3d 775f 423e be18 c8bf 020f 9cbe
000001a0: 4cca 73bd 6a70 1d3d 8994 4dbf 5102 1f3f
000001b0: 7a76 2e3e 9797 9b3e 06c5 a5be a3ea b4be
000001c0: 2cc1 24bf f7d5 833d 44dc febe 5442 02bf
000001d0: 353a d9bd 7595 38be c719 babd 0bd5 64be
000001e0: 3fd9 04be 325d 84be 3708 71bd dbe9 f73c
000001f0: ae17 28be 4452 a13c 34c4 5cbe b0e0 f93d
00000200: aa86 c6be a03e b9bc 0a60 1d3e 7c0e 95bf
00000210: ba95 0ebd f09e 62c0 700a 4cbc c590 40bd
00000220: 03d8 57be bd20 2abe 4fab 51bd b5d8 313c
00000230: 21f1 57c0 5908 7cbb 3d3c 8ebd 50a7 42bf
00000240: e894 f6bd 28de 4cbf def5 9cbe d991 c0bf
00000250: 2f05 3f3e b5bc 04bf 13a6 71bd 665d c6be
00000260: 3911 eebf 862d 5abe 9d64 d13d cd49 3fbf
00000270: 4767 64be 8fde 50be 08c1 9c3e e00b 753e
00000280: a722 bdbe b3cb 83be 1814 293c 956f bcbd
00000290: 5e58 013a c6b8 78bf 6077 f4bd 0f4c 643e
000002a0: 8943 e2bf 7f4c 3abe 9859 02be 52ca 593e
000002b0: 80f2 e7bf 5e00 0cbf ba06 47c0 8998 16bd
000002c0: 1dec c73f e4b8 edbe 8457 5abd 971e 49be
000002d0: 9569 15c0 d382 3fbe c6c7 48be 8fba 70be
000002e0: 98d5 42be ac61 a4bf 931b b0bf aa83 d9bc
000002f0: 9ddd 85be 379c 19bf bf1e 9fbc f3a1 f6bf
00000300: 2a31 be3c 0db0 f6bc 42d4 693c 947e 83bc
00000310: 9bea 5ebb c13b d43c f709 b6bd db5c f6bd
00000320: 9c36 bfbe 9bc2 5cbf 4513 7abd 5479 dcbe
00000330: 1c3b 523e 0855 7bbf 7fd0 9dbd 44a7 32be
00000340: ef69 b3bd 368f aebe 0cb9 763c 88ab 783d
00000350: c1a6 0bbf 5a97 22bc 95d3 343d 0078 373e
00000360: 614f a53e 6396 c5be 35ec 08bf e12f 69c0
00000370: 5165 a8be 5130 38bd e5c0 cfbd 9e27 5cbe
00000380: ac7d 793c e95c c73c a37e 89bd 6cae 913e
00000390: 4f42 b9be 6413 11be e2bb afbc ec8c fdbe
000003a0: 9642 293e b904 d9be 609c 11bf da09 78be
000003b0: 258b bebf e070 17bf 1000 a7bd dc5b 2dbf
000003c0: e2d5 38be b343 86be 04de 3abe f7d7 10be
000003d0: 5926 ac3c 5841 f5bd b33c ddbd 6710 e9bd
000003e0: 8159 d6be a35e 963e 061a 983e 4be0 0fbf
000003f0: 5bcb 0fbe 60ef 2bbe c31d febc cc4c cf3a
0.51861984 -0.10830081 -0.03324083 -0.124398455 -0.081638396 -0.015340285 -0.10819867 -0.06636467
0.34413084 0.32862094 0.33568105 0.32427576 0.045671616 -0.10965676 -0.17187162 -0.41807348
-0.068191126 -0.041094862 -0.14807619 -0.1563148 -0.049945965 -0.08935917 -0.26868442 -0.42388844
-0.017772675 0.09825995 0.033942796 -1.3988962 -0.29131302 -0.34934884 -0.14140083 -0.06596243
-0.8139272 -0.29455492 -0.20438384 -0.22997479 0.08788628 -0.018509427 -0.0651696 0.09631844
-0.09701324 0.0348878 -0.39385873 -0.0489247 -0.017823853 0.12650676 -0.34820828 -0.21509247
-4.9099836 -1.3448362 0.10929414 -1.1520118 -0.055256855 -0.18714558 -0.19591749 0.0039717196
-0.014996826 -0.07192976 -0.37622622 0.11064792 0.11316584 -0.12294857 0.1244757 -0.3300913
0.10395123 -0.22754225 0.28988034 -0.22718106 -0.093459465 -0.06416649 -0.064409405 -0.16916303
-0.105834045 -0.01931054 -0.12114538 0.05967232 0.118088864 -0.55091727 -0.17336546 0.06703607
-0.016966587 0.11768412 0.005875009 0.08901543 0.14060591 -0.094040796 -0.18539304 -0.38327923
-0.12040613 -0.0017092644 0.24621627 -0.7876467 0.45779824 -0.14871033 0.049231615 -0.14983864
-0.31294385 -0.3612853 -0.06489582 -0.12117893 0.034197986 0.1898173 -1.5632551 -0.304802
-0.059519097 0.038437285 -0.8030477 0.6211291 0.17037383 0.3038909 -0.3237688 -0.35335264
-0.64357257 0.06437295 -0.49777424 -0.5088246 -0.10606805 -0.18025763 -0.09086948 -0.22346894
-0.12973498 -0.25852352 -0.058845725 0.030262878 -0.16415283 0.019692548 -0.2155922 0.12201059
-0.38774616 -0.02261287 0.15368667 -1.1645045 -0.03481076 -3.5409508 -0.01245366 -0.047013063
-0.21078496 -0.16614051 -0.051188763 0.01085489 -3.3740923 -0.0038457124 -0.06945083 -0.7603655
-0.1204012 -0.80026484 -0.30656332 -1.5044509 0.18654321 -0.51850444 -0.05899627 -0.38743132
-1.8599006 -0.21306428 0.102242686 -0.74721986 -0.22305022 -0.203974 0.3061602 0.23930311
-0.369405 -0.25741348 0.010319732 -0.0920097 0.0004934127 -0.9715694 -0.119368315 0.22294639
-1.767686 -0.18193243 -0.1272949 0.21268585 -1.812088 -0.5468806 -3.1097856 -0.036766563
1.5618931 -0.46430123 -0.053306118 -0.19640575 -2.3345692 -0.18702249 -0.19607458 -0.23508666
-0.19026792 -1.2842307 -1.3758415 -0.02655204 -0.2614564 -0.6000399 -0.01942384 -1.9268173
0.023216803 -0.030113244 0.014271798 -0.016051568 -0.0034014347 0.0259074 -0.088886194 -0.120294295
-0.3734635 -0.86234444 -0.061053533 -0.43061316 0.20530361 -0.9817662 -0.07705783 -0.1744662
-0.087604396 -0.34093636 0.015058767 0.06071046 -0.5455132 -0.00992378 0.044147093 0.1791687
0.32287124 -0.38591298 -0.53485423 -3.6435473 -0.32889798 -0.044967953 -0.101442136 -0.21499488
0.015227716 0.024336295 -0.06713607 0.28453386 -0.36183402 -0.14167553 -0.021451894 -0.49521577
0.16529307 -0.42386416 -0.56879234 -0.24222508 -1.4886214 -0.5915661 -0.08154309 -0.6771829
-0.1805034 -0.26223525 -0.18248755 -0.14144884 0.02101438 -0.11975354 -0.10802593 -0.113800816
-0.4186516 0.29369077 0.29707354 -0.5620162 -0.14042418 -0.16790533 -0.03102005 0.0015815734

t_conv2.bias f4 [16]
00000000: b37f d5be 0f39 4ebe f272 11be 7e15 a1be
00000010: 6a76 4cbe 3c9b 2bbe a2cc d6be 6342 503f
00000020: 939e 0abf 1717 74be 6270 b2bd a05b a3be
00000030: 2f66 fd3d cc16 b6bd 46a2 bbbe b6f6 f2be
-0.4169899 -0.20138954 -0.14204004 -0.3146171 -0.19967046 -0.16758436 -0.41952997 0.813513
-0.54148215 -0.23836933 -0.087128416 -0.31905842 0.123730056 -0.08891067 -0.36647242 -0.4745385

t_conv3.weight f4 [16, 32, 2, 2]
00000000: 098a 933e 5d6c 063e 0da6 943e 74ff 86be
00000010: 601b 4cbe 1df2 ab3d 3e9d ba3e 29d4 81bc
00000020: 2d15 fabc 7034 26bd b402 dcbc d7f4 96bd
00000030: 3041 c0be 9481 f2bd 079b 4f3e 1a33 9cbf
00000040: 5ae2 a8bf f661 a83d 45e1 c6be b757 a2bf
00000050: fc31 453e aabf 33bf 8910 0d3e b6d7 b9c0
00000060: 652f a7bc 12f7 d2bc 1dd5 c1bc 23de ebbd
00000070: 7994 7ebf c710 b93e 3e86 483e e810 8dbe
00000080: 2154 4fbe 0f43 2d3d 256a dc3a 3895 db3c
00000090: d0b6 843e 7eb2 733f 173f a53e cb29 413e
000000a0: dcef 69be 0f75 11bf 949f 04be a677 04be
000000b0: 3bcc 843d fe34 28bd b1ec b33b 451d 0b3d
000000c0: 7c32 48be 16d2 7bbd 8e04 0abd 9817 3bbc
000000d0: 3710 a1be d5f3 0b3e 24b6 0ec0 f3e1 e2be
000000e0: 0130 873e 7e7f adbd 52e7 b2bd a204 06bd
000000f0: f1b5 78bf 19fc 18be 09a9 cbbd 8abb c8bf
00000100: e525 32be cf36 02bd fc56 9b3e 83cb 9b3e
00000110: 068c 763e 5d5e 573e 03da bf3e 2519 2ebd
00000120: 61e6 cabd 46a4 ee3c c05c 303f 8a7c 093f
00000130: 410d 04be e9f1 aabe 790e e1bd 3e0c 3a3d
00000140: bb7f 2bbe 6580 0cbd f0ab 9a3d db8c 91be
00000150: 60a4 09be 2cb9 4c3d 39b9 14bd 2947 f93c
00000160: 5def f43b cfb4 34bf d1ea 25bf 7bcd d1bf
00000170: b4b4 e13e 7c00 643e 32cc 803e 7719 9d3c
00000180: 6de1 6ebc 55d8 043a 660a 0a3d 70d5 adbd
00000190: 5b7f f2bd 7075 ffbe 59cb da3c 780e 2f3f
000001a0: 3bcf bf3d 1eda 8bbf 5d7c 3f3f 84ab d4bc
000001b0: 0f1a fa3c 5cb9 e03c 4b32 8b3c b160 ec3c
000001c0: 2989 c0bd eaba 11be bf68 b8bd 4880 4cbe
000001d0: 7c95 d3be d1e3 01be 42aa 213f 3bb4 d5be
000001e0: 8fe9 bb3e 1904 d3ba 8843 bd3e 8507 983e
000001f0: afa6 94bd 6be9 fdbe 38e8 01c0 1850 1a3f
00000200: 51cc edbf 6e2c 063f fe9e 84bf f123 1b3e
00000210: 19a7 ce3e ba52 12c0 235e 18bf dc94 9f3c
00000220: 78ad 39be bac5 1abe c29c 26be 1a80 38be
00000230: feca 163f c766 8bbe b41a efbd 0254 7ec0
00000240: 0989 3cbe 5856 203e a785 4ec0 5a9a 18bf
00000250: f944 323e 8146 973f a322 1fbf 3ffe f3c0
00000260: 8e1b 7ebf d454 95bf 94cf f7be f933 2fbf
00000270: 2a16 f1bf 1bd5 3bbf ac22 6ebf 0af2 c7bd
00000280: f540 0d3c 57f1 7ebd b8e6 01bd b44d 11bd
00000290: 43b9 913f 1f48 8dbf 16ad 39c0 7891 e0bf
000002a0: e109 cfbe d23b 0bbf 71af 4dbd 2b0e 15be
000002b0: 7ef9 ac3d 855d 4d3e 5a0f 103e f860 173e
000002c0: 9eb5 32be 926d 9bbd e65c 66bb beea f23c
000002d0: b73e ffbd 7450 863c cbbc 83c0 f834 01bf
000002e0: 605b b8bf d3f3 6bbe 2cbf c8be d307 adbf
000002f0: 862f b2bf 6a36 51c0 6b88 df3e c970 aabd
00000300: 1efa 51be 69a1 09be 1b73 863e da06 dfbf
00000310: 2151 073e f6c9 65be 12f1 3f3e 9bc0 b53f
00000320: 5257 ccbf 6418 a63d cc31 58bf 5276 8fbf
00000330: efee 8fbc 7b2c 2cbe 6c43 f9bd 7ebd 09bf
00000340: 2485 f8bd 32e4 4abd f3ad a33e c2e0 373d
00000350: a56c dabe abff cbbe fd84 82be 2077 0ebc
00000360: 74a8 05bf 0c45 b53e 7543 f0bf a13e 63c0
00000370: 5313 c93d 763a b93e d2c2 8c3e 6269 fbbe
00000380: 0d57 723d e791 2e3d 8843 4dbf 8ce9 d23d
00000390: 99c3 9ebd b6c9 e6c0 760d 05be 317a debc
000003a0: 58cc 73bd 5634 393c 75d6 143f 9445 e63e
000003b0: 7c8c 87bc 4fbc 633e fcb5 5d3e 6146 383d
000003c0: a979 93be 0147 a7bd c0fd 06bb b435 22bf
000003d0: 63e3 18be 4321 06be 657c 41bd 7dc8 92be
000003e0: 30bc 81be e1d3 8cbf be0d 58bf 96be 8ebf
000003f0: 2ee0 0cbd 7a3a 49bf 5b69 51be cce3 d73e
0.2881625 0.13127275 0.29032937 -0.2636677 -0.19932318 0.08395789 0.3644809 -0.015848236
-0.030527676 -0.040577352 -0.026856758 -0.07370918 -0.37549734 -0.11841121 0.20273982 -1.2203095
-1.3194077 0.082218096 -0.38843742 -1.2683018 0.19257349 -0.7021433 0.13775839 -5.807582
-0.020408342 -0.025752578 -0.02366119 -0.115169786 -0.994453 0.36145613 0.1958246 -0.2755196
-0.20246936 0.04230028 0.0016816302 0.026804551 0.25920725 0.9519423 0.32274696 0.18863599
-0.22845405 -0.5681924 -0.12951499 -0.12936267 0.06484266 -0.041066162 0.0054908623 0.03396346
-0.19550508 -0.06147965 -0.03369575 -0.011419199 -0.31457683 0.13667233 -2.229867 -0.4431301
0.26403812 -0.08471583 -0.08735527 -0.032719262 -0.9715262 -0.14939918 -0.0994435 -1.5682232
-0.17397268 -0.03179055 0.303398 0.30428705 0.24076852 0.2103209 0.37471017 -0.04250445
-0.099072225 0.029131066 0.68891525 0.53705657 -0.12895681 -0.33387688 -0.109890886 0.04542183
-0.16747944 -0.034302134 0.07552326 -0.28427777 -0.1344161 0.04998128 -0.036309455 0.03042944
0.0074748234 -0.7058839 -0.64811426 -1.6390833 0.44083178 0.2226581 0.2515579 0.019177182
-0.014580113 0.00050676364 0.033701323 -0.084879756 -0.118406974 -0.49894285 0.026708292 0.6838145
0.09365698 -1.0925939 0.7479914 -0.025960691 0.030530004 0.027432136 0.016991755 0.0288547
-0.09401161 -0.14231458 -0.09004354 -0.1997081 -0.41324985 -0.12684561 0.6315042 -0.41739067
0.3670163 -0.0016099244 0.36965585 0.29693237 -0.07258355 -0.49592146 -2.0297985 0.60278463
-1.8577977 0.52411544 -1.036102 0.1515043 0.4036186 -2.2862992 -0.5951864 0.019480161
-0.1813258 -0.15114489 -0.16270736 -0.18017617 0.5890349 -0.2722685 -0.11675015 -3.9738774
-0.1841165 0.15657938 -3.2269075 -0.5961052 0.17409123 1.1818391 -0.62162226 -7.624786
-0.99260795 -1.1666512 -0.48400557 -0.6843868 -1.8834889 -0.7337205 -0.93021655 -0.09762962
0.008621444 -0.06224188 -0.03171417 -0.035474494 1.1384662 -1.1037635 -2.9011893 -1.7544394
-0.40437225 -0.54388154 -0.050216142 -0.14556186 0.08446024 0.20055206 0.14068356 0.14783084
-0.17452094 -0.07589258 -0.0035150587 0.02965295 -0.12463134 0.016395785 -4.116796 -0.5047145
-1.4402885 -0.2304223 -0.39208353 -1.3518013 -1.3920753 -3.2689462 0.43658766 -0.08322293
-0.20505568 -0.1344048 0.26259694 -1.7423966 0.13214542 -0.22440323 0.18744305 1.4199404
-1.5964148 0.08110121 -0.84450984 -1.1207983 -0.017569987 -0.16813843 -0.12171063 -0.5380477
-0.121347696 -0.04953403 0.3196865 0.04489208 -0.42661014 -0.39843497 -0.25492087 -0.008695394
-0.52210164 0.3540424 -1.8770586 -3.5506976 0.09818139 0.36177415 0.27492386 -0.49103838
0.05916505 0.042619612 -0.8018117 0.10298452 -0.07752151 -7.212123 -0.12993416 -0.027157875
-0.05952105 0.011303982 0.58139735 0.4497496 -0.01654648 0.22239803 0.21651453 0.044988994
-0.28803757 -0.0816784 -0.0020598024 -0.63363194 -0.14930491 -0.13098626 -0.047237772 -0.28668585
-0.25338888 -1.100216 -0.8439597 -1.1151912 -0.034393482 -0.78604853 -0.20450346 0.42165983

t_conv3.bias f4 [32]
00000000: 3050 5f3e 2a78 693e 33e6 1f3f 6d90 a6bf
00000010: 9c20 49be c6a3 14bf f7f4 ca3e c330 763e
00000020: 8e93 e6be c3fb c53c 20b4 90be d3cc 64bf
00000030: bda4 75bd 3555 cabe 862f e5be 5594 5dbe
00000040: d912 22bf 6f79 0dbf 54c8 233e c1df b5be
00000050: 6484 c6be 766c 02bf 5fca 54bd d57f 8f3e
00000060: df29 b63e c27b a6be bb3a dabd b370 973e
00000070: eef1 d4bf 5d00 45bd ed83 883d 752c 2fbe
0.21807933 0.22799745 0.6246063 -1.3012825 -0.19641346 -0.580624 0.39640018 0.24042039
-0.4503445 0.0241679 -0.28262424 -0.89375037 -0.05997156 -0.39518133 -0.4476282 -0.21638615
-0.6331001 -0.5526342 0.15994388 -0.35522273 -0.3877288 -0.5094675 -0.05195081 0.28027216
0.3557882 -0.32516295 -0.10655733 0.2957817 -1.6636331 -0.04809605 0.06665788 -0.17106803

conv_out.weight f4 [3, 32, 3, 3]
00000000: 6b20 02be 64fe ffbd 0b3f 6bbd b844 14be
00000010: 012b eebd 7714 71bd 9c83 87bd 1246 56bd
00000020: 8ac8 8dbb a436 0abd 68f8 d0bc 66b3 1dbc
00000030: 5023 9fbd ed56 99bd f5fa 13bd 32d4 74bd
00000040: 09da a4bd 663d 17bd 5e20 aabd d9e8 8cbd
00000050: 8589 a6bd 26ae 25be ced9 c2bd db01 ffbd
00000060: 1684 f0bd 548a 19be 4181 f9bd adb5 c4bd
00000070: 29a0 f4bd b6a4 c6bd a190 e2bd 0643 18be
00000080: fd68 e7bd f016 82bd 143b b2bd 05c1 8dbd
00000090: 2d2f 9abd 7617 c2bd 4e31 a7bd e283 07bd
000000a0: f515 8dbd eb08 b7bd beab 35b9 b815 04bd
000000b0: dbbd 48bd ce09 8e3d 42ab 80bc 4bf4 573c
000000c0: 8327 b53d 728a 423d bb8f aa3d 57f1 a33d
000000d0: a168 9c3d 267a be3d 14f0 08be 2b28 73be
000000e0: 7811 ffbd 8f7c 7ebe 35d7 d2be c117 6bbe
000000f0: d2c1 09be 0009 41be 1fed 0fbe 0598 75bd
00000100: 9a22 c5bd 6fac c5bd e5b4 ebbb 97fe 9bbd
00000110: fc67 e9bd da55 073b 351c 04bd 6cce 94bd
00000120: 8700 06bd 850f 08bd f1ae 06bd f346 403d
00000130: 0d97 a23c 0b70 d33c cbe4 a13d 3de5 a73d
00000140: 176e 593d ace6 52bd cfe0 a5bd 438b 2bbd
00000150: 990f aabd 00f6 f4bd 190c 8cbd 0da8 77bd
00000160: e655 e0bd 6691 60bd 942c 60bc 3312 10be
00000170: 84f2 78bd 98f1 0dbe 19e9 b2bd 950b af3d
00000180: fab8 0bbe ddfd 0dbd 91f2 af3d 6212 283b
00000190: 11a4 7fbd 5d0e 2fbd 9748 3b3c f6f0 0fbd
000001a0: fccd 1cbd 9a03 663d d3f4 843c f099 89ba
000001b0: 176c 09be 1428 2f3d ea1a 2abe a436 a5bd
000001c0: 97b8 97bd e7b9 19be aefd 06be 1be7 3dbe
000001d0: 2b78 27be 437c eb3c afce 753d e38d 273d
000001e0: e6ca 163d f09e e43d 1603 873d 7799 fc3c
000001f0: 4f4d bb3d 018d 673d 65d1 29be 5627 32be
00000200: 27d3 21be 4dbc 87be 5018 96be 1f9f 87be
00000210: 056a 25be 5f7a 45be 9489 13be e03f 09be
00000220: c206 00be 31ef d3bd 5b89 53be aad9 69be
00000230: ce1b 11be 99c2 1cbe 4428 36be 285a bebd
00000240: 416a 253d c3c9 603d 126e 623d 519e 883d
00000250: 4cb5 8d3d 1328 9c3d 3a97 5d3d ae8a 233d
00000260: 5a7c 503d 31e3 5f3d 02e4 fc3b 194d 8fbc
00000270: 04bd ca3d 6645 9c3d 7e5c b03c 2267 d43d
00000280: 01d2 bd3d 130b c53c 60a9 cabd af7d 04be
00000290: 6f8f 6fbd 58aa e6bd 7748 07be 05b1 8cbd
000002a0: 7b3f 8fbd d9e9 b9bd ffdf 83bd c078 18bd
000002b0: 0f0f ea3d 6e33 993d e3cb 0dbc a8bc 013e
000002c0: 2524 c23d fafe 9ebb dfaa c53d 1aa2 ba3d
000002d0: 9bb7 0d3e 0140 2f3e 8669 37bb a6b8 913e
000002e0: 219b b13e dc0c cd3d 91e0 1d3e a97e 503e
000002f0: cb78 c13d 831b 99bc 9563 cfbc 860e dbbc
00000300: e3d1 6b3d 8431 d73c 36e0 023d bfb9 a63d
00000310: b9c1 9b3d 8de0 743d 687f eabd 841c c5bd
00000320: 673c 09be 84f1 0abe b35f 18be cc93 0cbe
00000330: 412f 1bbe 132b 2abe b398 1ebe 9c5a 86bd
00000340: f657 5bbd 7795 cdbc 1b0e acbd 79c4 acbd
00000350: daf6 f8bc 0fb7 5cbd 9c02 58bd 825d c0bc
00000360: 69bf 86bb 32dc 823a 867f 91bb 7523 84bc
00000370: 1339 babb e18f 0abc 0143 34bc 3738 a7bc
00000380: f0c4 5abc 9813 0abd 8a70 813d 7699 193e
00000390: 3b6b bfbd dd3e 8f3d 0c14 223e f92c 1dbe
000003a0: 334d b13c 4a78 b83d 2349 243d 9f07 543d
000003b0: 85ef 62bc 623c 2f3d c93b 3b3d 7e25 7ebd
000003c0: 089f cc3c b400 843c c71a a9bd 8abb 4b3d
000003d0: 9864 f23a abeb 1c3d 32af d83d 7a25 883c
000003e0: 6ada 903d ef05 cc3d d8ca 9e3d c75f 9f3d
000003f0: ac82 8dbd bf6e 9bbd 90b4 3dbd 6275 babd
-0.12707679 -0.12499693 -0.05743317 -0.14479339 -0.11629296 -0.058857407 -0.06616899 -0.052312918
-0.0043268846 -0.033743516 -0.025509074 -0.009625291 -0.07770407 -0.07487283 -0.036128003 -0.059772678
-0.080493994 -0.03692379 -0.08306955 -0.0688035 -0.081316985 -0.16179714 -0.09514199 -0.12451526
-0.117439434 -0.14994174 -0.12182856 -0.096049644 -0.119446106 -0.09699385 -0.11062742 -0.14869317
-0.11299322 -0.06352031 -0.087026745 -0.06921581 -0.07528529 -0.09477131 -0.08163701 -0.033084758
-0.068889536 -0.08937248 -0.00017325484 -0.032247275 -0.049009185 0.06935464 -0.015706662 0.013180803
0.08845427 0.047495313 0.08328196 0.08005016 0.07637144 0.09300642 -0.13372833 -0.23745792
-0.12454504 -0.24852203 -0.41179815 -0.2295828 -0.13452843 -0.1885109 -0.14055298 -0.05995943
-0.0962574 -0.0965203 -0.007193195 -0.076169185 -0.113967866 0.0020650537 -0.032253463 -0.07265934
-0.032715347 -0.033217926 -0.03288168 0.046942662 0.019847417 0.025810262 0.07904967 0.081980206
0.053083505 -0.051489517 -0.080995195 -0.041880857 -0.08303756 -0.11960983 -0.06838245 -0.060463
-0.10953884 -0.054826163 -0.013682503 -0.14069442 -0.060778156 -0.13861692 -0.08735866 0.08547131
-0.13644782 -0.03466593 0.08591188 0.0025645723 -0.062412325 -0.042738307 0.011430881 -0.035141908
-0.03828238 0.05615578 0.016230023 -0.0010498147 -0.13420139 0.04276283 -0.1661183 -0.080670625
-0.074082546 -0.15012322 -0.13182709 -0.18545191 -0.16354434 0.028745776 0.060011562 0.040906798
0.036814593 0.111631274 0.065923855 0.030834896 0.09145605 0.056530956 -0.16583784 -0.17397818
-0.15803204 -0.2651085 -0.29315424 -0.26488587 -0.16153724 -0.19284962 -0.1440795 -0.13403273
-0.12502578 -0.103483565 -0.20657866 -0.22836939 -0.14170763 -0.15308608 -0.17788798 -0.0929454
0.040384535 0.054879915 0.055280752 0.066708215 0.06919345 0.07624831 0.0540993 0.039927177
0.05089984 0.054660026 0.0077176103 -0.017492818 0.09899333 0.07630424 0.021528479 0.103712335
0.09268571 0.024053132 -0.09895587 -0.1293857 -0.0584864 -0.11262959 -0.13211237 -0.06869701
-0.0699453 -0.09077806 -0.06439208 -0.03722453 0.114286534 0.074805126 -0.008654567 0.12669623
0.0947955 -0.004852173 0.09651732 0.0911295 0.13839571 0.1711426 -0.002798648 0.28461188
0.34688666 0.10012218 0.15417697 0.20360817 0.094468676 -0.018689876 -0.02531604 -0.026740324
0.05757321 0.026268728 0.031952105 0.08140897 0.07605309 0.05978446 -0.11450082 -0.096245795
-0.13401948 -0.13568693 -0.14880256 -0.13728255 -0.15154745 -0.16617994 -0.15487938 -0.06560251
-0.053550683 -0.025095684 -0.08401128 -0.08435912 -0.030391145 -0.053885516 -0.052736863 -0.023482088
-0.0041121733 0.0009983836 -0.004440251 -0.016130188 -0.0056830733 -0.008457155 -0.011002303 -0.020412548
-0.013352618 -0.033710092 0.06320293 0.14999947 -0.093466245 0.06994412 0.1582796 -0.15349187
0.021643257 0.09007318 0.04010881 0.05176508 -0.013851051 0.042782195 0.045711312 -0.062047474
0.024978176 0.016113617 -0.082570605 0.049739398 0.0018493114 0.038310688 0.10580291 0.016619433
0.07072909 0.09962069 0.07753533 0.0778194 -0.06909689 -0.075894825 -0.046314776 -0.0910442

conv_out.bias f4 [3]
00000000: 6ca4 ed3e f4fe 983e 4428 9c3e
0.46414506 0.29882014 0.3049947
